…
Hyperparameters {'lr0': 0.0032, 'lrf': 0.12, 'momentum': 0.843, 'weight_decay': 0.00036, 'warmup_epochs': 2.0, 'warmup_momentum': 0.5, 'warmup_bias_lr': 0.05, 'box': 0.0296, 'cls': 0.243, 'cls_pw': 0.631, 'obj': 0.301, 'obj_pw': 0.911, 'iou_t': 0.2, 'anchor_t': 2.91, 'fl_gamma': 0.0, 'hsv_h': 0.0138, 'hsv_s': 0.664, 'hsv_v': 0.464, 'degrees': 0.373, 'translate': 0.245, 'scale': 0.898, 'shear': 0.602, 'perspective': 0.0, 'flipud': 0.00856, 'fliplr': 0.5, 'mosaic': 1.0, 'mixup': 0.243}
Downloading https://github.com/ultralytics/yolov5/releases/download/v3.1/yolov5m.pt to yolov5m.pt...
100% 41.9M/41.9M [00:02<00:00, 19.5MB/s]

Overriding model.yaml nc=80 with nc=2

                 from  n    params  module                                  arguments                     
  0                -1  1      3520  models.common.Focus                     [3, 32, 3]                    
  1                -1  1     18560  models.common.Conv                      [32, 64, 3, 2]                
  2                -1  1     19904  models.common.BottleneckCSP             [64, 64, 1]                   
  3                -1  1     73984  models.common.Conv                      [64, 128, 3, 2]               
  4                -1  1    161152  models.common.BottleneckCSP             [128, 128, 3]                 
  5                -1  1    295424  models.common.Conv                      [128, 256, 3, 2]              
  6                -1  1    641792  models.common.BottleneckCSP             [256, 256, 3]                 
  7                -1  1   1180672  models.common.Conv                      [256, 512, 3, 2]              
  8                -1  1    656896  models.common.SPP                       [512, 512, [5, 9, 13]]        
  9                -1  1   1248768  models.common.BottleneckCSP             [512, 512, 1, False]          
 10                -1  1    131584  models.common.Conv                      [512, 256, 1, 1]              
 11                -1  1         0  torch.nn.modules.upsampling.Upsample    [None, 2, 'nearest']          
 12           [-1, 6]  1         0  models.common.Concat                    [1]                           
 13                -1  1    378624  models.common.BottleneckCSP             [512, 256, 1, False]          
 14                -1  1     33024  models.common.Conv                      [256, 128, 1, 1]              
 15                -1  1         0  torch.nn.modules.upsampling.Upsample    [None, 2, 'nearest']          
 16           [-1, 4]  1         0  models.common.Concat                    [1]                           
 17                -1  1     95104  models.common.BottleneckCSP             [256, 128, 1, False]          
 18                -1  1    147712  models.common.Conv                      [128, 128, 3, 2]              
 19          [-1, 14]  1         0  models.common.Concat                    [1]                           
 20                -1  1    313088  models.common.BottleneckCSP             [256, 256, 1, False]          
 21                -1  1    590336  models.common.Conv                      [256, 256, 3, 2]              
 22          [-1, 10]  1         0  models.common.Concat                    [1]                           
 23                -1  1   1248768  models.common.BottleneckCSP             [512, 512, 1, False]          
 24      [17, 20, 23]  1     18879  models.yolo.Detect                      [2, [[10, 13, 16, 30, 33, 23], [30, 61, 62, 45, 59, 119], [116, 90, 156, 198, 373, 326]], [128, 256, 512]]
Model Summary: 283 layers, 7257791 parameters, 7257791 gradients

Transferred 59/370 items from yolov5m.pt
Optimizer groups: 62 .bias, 70 conv.weight, 59 other
Scanning '../train/labels' for images and labels... 8691 found, 0 missing, 189 empty, 0 corrupted: 100% 8691/8691 [00:03<00:00, 2210.74it/s]
…
